week9/models/fullmodel.pt (torch, 28568 bytes, 8 tensors)

weight f4 [100, 4]
000000 53 0d 4a 3d a5 ad 88 3e d3 a1 98 be c4 e2 87 bc
       0.049329113 0.2669498 -0.29810962 -0.016587622
000010 2f 45 e3 3e 86 9f 9c bd 27 cf d9 be e9 4a 97 be
       0.4438872 -0.07647614 -0.42540857 -0.2954934
000020 92 2d a1 3e ff aa 83 3e bf ce b2 3e 96 90 2e be
       0.3148008 0.25716397 0.3492336 -0.17047343
000030 ed 12 61 be 3c 5f e7 be 55 42 89 3d 8e 91 88 bd
       -0.21979876 -0.45189846 0.06702105 -0.06668387
000040 84 54 f3 3e b8 64 65 be a5 dc a4 be 7d 0f 4a 3e
       0.47525418 -0.22401702 -0.32199588 0.19732471
000050 79 7d 40 be fd d5 97 bd 9d 96 04 3f d6 59 ad 3e
       -0.18797864 -0.07413862 0.5179232 0.33857602
000060 e7 c7 fb be ec 83 87 3b 9d 22 bd 3c ae 66 00 3f
       -0.4917595 0.0041355994 0.023087794 0.50156677
000070 35 bc f4 be 10 cb af 3e 93 00 0f bf b3 af 0e bf
       -0.4779984 0.34334612 -0.5586025 -0.55736846
000080 1f d9 84 be 2a ae 00 bf 72 04 be bc ff b7 d1 3e
       -0.259469 -0.50265753 -0.023195479 0.4096069
000090 b3 6a 07 be 33 1a c5 be cb 56 4c bd 25 59 d5 be
       -0.13224296 -0.3849655 -0.04988746 -0.41669574
0000a0 74 89 af 3e 8b d0 e4 3b a8 33 03 3f 1f a7 97 3e
       0.34284556 0.006982868 0.51250696 0.2961969
0000b0 b2 81 3b 3e 0e 1a 2c 3e 72 d4 f0 3e 0b d9 9d be
       0.18311194 0.16806814 0.47037083 -0.30829653
0000c0 fd 51 9e be 8f cf bb 3e 0f d9 53 3e 36 26 01 3f
       -0.30921927 0.36681792 0.2068827 0.5044893
0000d0 9b a0 dc 3d 6d 73 14 3e 89 2c ae 3e 92 7f c0 3e
       0.107728206 0.14497156 0.34018353 0.37597328
0000e0 e3 d5 85 3e d6 90 cd be 6d 57 07 3e cf 4e b4 be
       0.26139745 -0.40149564 0.13216944 -0.35216376
0000f0 c0 64 7e 3d 01 4d 83 3e b2 25 10 be ba 1c f7 3e
       0.0621078 0.25644687 -0.1407688 0.48264104
000100 55 a5 e3 3e c7 8c 37 3e 77 27 c4 be 93 50 df bb
       0.44462076 0.17924796 -0.3831136 -0.006815025
000110 78 5f c5 3e 71 6e 4f 3d 42 c0 f4 3e be f3 b5 3d
       0.385494 0.050642435 0.4780293 0.08884381
000120 f5 5f 63 be 84 1c a3 3e 26 f5 32 3e e5 6a 92 3e
       -0.22204573 0.31857693 0.17476329 0.2859718
000130 cf 64 9a be fc 5e cf be 12 3b b3 3e a6 2f 3f 3e
       -0.30155036 -0.40502155 0.35006005 0.1867052
000140 a1 c7 be 3e d4 7c d4 be bb 6b 64 be 98 7e e9 bb
       0.3726168 -0.41501486 -0.22306721 -0.007125687
000150 57 ae 84 be 6f fe 8d 3e 8b 31 e0 3e 6f bd fb 3e
       -0.2591426 0.2773318 0.43787798 0.49167964
000160 b1 39 9f 3d 02 0a ea be 58 6e 22 be ff aa 13 3e
       0.07774676 -0.4571076 -0.15862405 0.14420699
000170 0f 86 0f be 9b 81 5a 3e b9 2e 0c be a8 b6 d2 3e
       -0.14015983 0.21338503 -0.13689698 0.4115498
000180 e2 9e da 3e e2 3a f6 3e e1 5b 2a 3e d3 90 b3 be
       0.42699343 0.480918 0.16636612 -0.3507143
000190 60 e6 10 be 86 ca 83 be 6f 9e 68 3e c2 c8 00 bd
       -0.14150381 -0.2574045 0.22716688 -0.031441458
0001a0 ac 3f 51 3e cd 6c 23 3e a1 d0 23 be 1d e5 77 3d
       0.20434445 0.15959473 -0.15997554 0.060521234
0001b0 ba 6d da bd fd 87 c8 3d 2c 67 bc be 74 09 d4 bc
       -0.1066546 0.09791563 -0.36797464 -0.025883414
0001c0 76 2c c3 3e 02 10 83 3e 3d 4c 9e be 77 6f d6 3e
       0.38119859 0.2559815 -0.3091754 0.41881916
0001d0 8a cd 3e be cb e9 d5 3e 22 9a 95 bd d6 15 04 3f
       -0.18633094 0.41779932 -0.07304789 0.5159582
0001e0 98 ff 83 3e a4 35 34 be 07 6c e5 3e f8 20 11 3f
       0.2578094 -0.17598587 0.4480898 0.5669093
0001f0 4f 9d c6 be e4 43 bf 3d f9 b4 ae 3e ad db 5a bd
       -0.38791892 0.09339121 0.34122446 -0.053432155
000200 dd 63 a0 3e ea a0 c1 3e 00 39 c9 be 3c cb 8e 3e
       0.3132619 0.3781808 -0.393013 0.2788943
000210 f7 60 f8 be 48 e1 ab 3e dc 6f a1 be 32 c6 45 be
       -0.48511478 0.33570313 -0.31530654 -0.19313887
000220 36 61 fa 3d 31 81 dc be 42 b9 e4 bc 6b 9b 43 be
       0.12225573 -0.43067315 -0.027920369 -0.19102256
000230 78 69 27 3e b5 43 08 bd 5b 66 e5 be 56 36 f0 bd
       0.16348827 -0.033267695 -0.44804654 -0.11729114
000240 d1 ba 68 3d c7 3a 99 3e a5 16 a2 be 19 e7 aa be
       0.056818787 0.29927656 -0.316579 -0.3337944
000250 52 0c 93 3e 60 3b 83 be 92 e4 79 be f0 f1 12 bf
       0.28720337 -0.25631237 -0.24403599 -0.5740042
000260 46 7d ef bd 32 e1 d4 be 7f 90 e1 3d b9 1e e5 3e
       -0.11693816 -0.4157806 0.110138886 0.44750002
000270 e4 4e 6e 3e 9c 95 dc be ac 5f f9 3e f7 4d ca be
       0.23272282 -0.43082893 0.48705804 -0.39512607
000280 bd ae 39 be c8 ca 55 3e ed ab 94 3e cf 58 b0 3e
       -0.18133064 0.20878136 0.2903742 0.34442756
000290 9a f4 f6 bd 5b 2c de be 65 b4 01 bf 26 8a 9e 3c
       -0.12058373 -0.43393216 -0.50665885 0.019352984
0002a0 5c d2 f2 be 02 3b b2 be f3 a5 b2 3e 33 f5 5c bd
       -0.47426116 -0.34810644 0.34892234 -0.053944778
0002b0 1f e0 29 3e f2 44 dc be 41 ff fc 3d 1c 97 03 3f
       0.16589402 -0.4302135 0.12353373 0.5140245
0002c0 78 f2 53 3d db ab 08 3e 2a 97 be be db 7e d7 be
       0.051744908 0.13346808 -0.37224704 -0.4208897
0002d0 3c 18 ae 3e f0 3b e7 be 42 ef c0 bc a8 bc cf be
       0.34002864 -0.45162916 -0.023551587 -0.4057362
0002e0 05 5c 63 3d b8 d1 fe be ca f5 2e 3e 4b f4 3f bc
       0.05550768 -0.49769378 0.17085949 -0.011715959
0002f0 f1 3f b2 be 4f a3 12 be 42 10 79 be a1 b7 87 be
       -0.34814408 -0.1432011 -0.24322608 -0.26507285
000300 8a 19 21 be 9b 44 ec 3d 5f 1f b2 be d9 6d 8c 3d
       -0.15732399 0.11536523 -0.3478956 0.06856889
000310 5b 76 e4 be 4f 66 09 3f 64 fc bd be 81 00 06 3e
       -0.44621548 0.53671736 -0.3710662 0.1308613
000320 c7 82 aa be 2e e8 af be c3 e2 98 bd d7 9d 92 be
       -0.333029 -0.34356827 -0.07465126 -0.28636047
000330 67 95 17 be fb a0 46 be f9 b2 36 be 2b be de be
       -0.14803086 -0.19397347 -0.1784171 -0.43504462
000340 41 5e fc 3e af fd 86 3e cd 47 22 be ea d6 c6 3e
       0.4929066 0.2636542 -0.15847702 0.3883584
000350 d6 b8 66 be 1c 5e d4 be 86 51 1b 3e 36 6b 42 be
       -0.22531447 -0.4147805 0.15167817 -0.1898621
000360 14 ca bf 3e e0 12 0d be 1a a6 d2 be 84 b7 d4 3e
       0.3745886 -0.13776731 -0.4114235 0.4154626
000370 08 b2 fe 3d 65 96 ff 3d 7f 70 f0 bc 76 fc c3 be
       0.124363005 0.12479857 -0.029350517 -0.3827855
000380 a4 d3 24 3e 00 00 b1 3a b4 7e a9 be 80 e2 91 3e
       0.1609636 0.0013504028 -0.3310448 0.28493118
000390 37 3e fc be 66 9f 96 be 2e 3a 19 be 1e 74 00 bf
       -0.49266216 -0.29418486 -0.149636 -0.5017718
0003a0 f7 a4 f0 be 68 07 28 be dd 7f d1 bd c3 f7 b0 3e
       -0.47000858 -0.16409075 -0.10229466 0.34564027
0003b0 ce 27 6b 3e 68 1a ef 3e 91 8b 1b 3e 44 c0 82 3d
       0.22964403 0.46699834 0.15189959 0.06384328
0003c0 0d 11 18 be aa 4e 1b be d2 b6 08 bf b7 0e 0a bf
       -0.14850254 -0.15166727 -0.5340396 -0.53928703
0003d0 ab 75 68 3e a1 9a a2 be ce 76 49 be 85 92 6e 3e
       0.22701137 -0.31758597 -0.19674227 0.2329808
0003e0 7b dc 9f be 78 8f 3f 3e b3 61 fd bc ee 39 cd 3d
       -0.312229 0.18707073 -0.030930376 0.10020815
0003f0 ab aa 95 be 7f af c3 3e ff 96 f9 be fd 7c 0a bf
       -0.29231772 0.3821983 -0.48748013 -0.54096967

bias f4 [100]
000000 a7 a9 8b be c8 51 a6 be 9d be 71 3e ee e7 cf bc
       -0.27277872 -0.3248427 0.2360787 -0.025379147
000010 a8 72 5d be 3d a2 ca 3e 37 f6 3f bd 42 25 96 be
       -0.21625769 0.39576903 -0.04686567 -0.293253
000020 83 e0 6c bd bb 47 61 be 70 71 39 be 02 44 d2 be
       -0.0578313 -0.22000019 -0.18109679 -0.4106751
000030 48 26 bd 3e 3f 1f cd 3e e8 0b d6 be 0a 2a 95 3e
       0.3694327 0.400629 -0.4180596 0.29133636
000040 18 02 2d 3e d3 ce 51 be 40 b6 15 be 01 bb e5 3d
       0.1689533 -0.20489053 -0.14620304 0.11217309
000050 2f 5a db 3d af 9e ce 3e 57 e0 f3 3e b6 6b 11 3d
       0.107105605 0.4035544 0.47632095 0.03550311
000060 db 9f 13 3f 0f f0 9e be aa e7 1b 3d b1 33 c5 be
       0.57665795 -0.31042525 0.03806273 -0.38516
000070 79 de 81 3e 06 f7 cc 3d 27 d7 98 be 34 bc c4 be
       0.25365046 0.100080535 -0.29851648 -0.38424838
000080 88 83 ff bd 2d 66 29 be a8 dc 49 be 41 64 e1 be
       -0.124762595 -0.16542883 -0.1971308 -0.440218
000090 24 dd 96 be e1 9f 07 3f df dc 6d be d5 98 49 3e
       -0.29465592 0.5297833 -0.23228787 0.19687207
0000a0 ac 81 08 3d ce 24 46 bd 83 f5 2e 3e 8c a1 af 3e
       0.03332679 -0.048374943 0.17085843 0.34302938
0000b0 2f 26 2a 3e e8 da e6 3d 59 b8 fb 3e 48 74 21 3d
       0.16616128 0.11272222 0.49164084 0.039417535
0000c0 a5 69 ad 3d 0d 22 06 3f 15 ec ba be d6 f2 d4 3e
       0.08467416 0.5239571 -0.3650824 0.4159152
0000d0 0c 52 84 be 8f a6 01 bc 97 4e 94 be c0 9d bf 3e
       -0.25843847 -0.007913246 -0.2896621 0.3742504
0000e0 ac e6 cd be 23 51 4d be e9 f1 07 3e 14 f8 42 be
       -0.4021505 -0.20050482 0.13275875 -0.19039947
0000f0 7a de ae 3d 0f 70 00 3f 84 2b e1 be 32 23 88 be
       0.08538528 0.5017099 -0.43978512 -0.26589352
000100 4e e7 bd be 6c ad f8 3e 4e ec ee 3d 55 e3 b0 be
       -0.37090534 0.4856981 0.11666165 -0.3454844
000110 45 34 e4 be 47 a1 d3 3e 50 15 ea 3e b5 63 99 be
       -0.44571128 0.41333982 0.45719385 -0.29958883
000120 f7 e2 04 3e b5 26 e1 bd 96 94 9c 3e 37 af 64 be
       0.12977205 -0.10993711 0.30582112 -0.22332464
000130 a7 76 cd 3e 56 36 f4 3e 41 00 a3 3e 43 5f a9 bd
       0.40129587 0.47697705 0.3183613 -0.08270123
000140 7e d3 ab 3d 3d 3f 91 3e ae 5d 8c be ee 9d 54 be
       0.08389948 0.2836856 -0.27415222 -0.2076337
000150 57 30 f3 be aa db a9 3e 08 02 77 be 57 1b c5 3e
       -0.47497818 0.33175403 -0.24121869 0.3849742
000160 e5 61 a6 bd fe 3d 3a be 29 16 9a 3e 2d 10 8c bd
       -0.08124141 -0.1818771 0.30095032 -0.06839023
000170 94 6d ad be 55 a8 4c 3d 8b 73 6f be 5d ce b9 be
       -0.33872664 0.04996522 -0.2338392 -0.36290255
000180 91 a9 9c be 2f 3e 76 3d 67 d2 93 3d 28 15 4f be
       -0.3059812 0.060117897 0.072178654 -0.20222914

weight f4 [50, 100]
000000 94 d1 30 3d 4d 50 e2 bc 80 b6 a0 bd 7a 0a 15 3d
       0.04316862 -0.027626181 -0.07847309 0.036386944
000010 af 70 05 bd bd 44 c9 3c 3c 8d c3 3d 4d 0c 04 3e
       -0.032578167 0.02456891 0.09548423 0.12895317
000020 57 c1 68 bd 0b d9 b8 3d 6d 9b 25 3e 84 a1 83 bd
       -0.05682501 0.09025773 0.16172571 -0.06427291
000030 a6 08 91 bd 7c 81 1d bd d0 0f d9 bc df f1 47 3c
       -0.07081728 -0.038453564 -0.026496798 0.012203663
000040 03 c1 5a 3c ec 91 91 3d 2a 9f b6 3c 7d f3 07 bd
       0.013351682 0.071079105 0.022292692 -0.033191193
000050 64 86 a7 3d 5a b4 08 3e 76 f2 31 3d e6 b1 12 3d
       0.0817993 0.13350049 0.04344412 0.03581419
000060 38 71 a9 bd 92 75 88 3c 5e 60 99 bd 64 54 ca 3d
       -0.08273548 0.016657624 -0.07489084 0.098793775
000070 3e 5e 94 bd 1c 98 c9 3d b2 a7 43 3e 20 cc 40 bd
       -0.07244538 0.09843466 0.1910694 -0.04706967
000080 e0 86 ab bd e3 f9 90 3d 69 11 aa bd a1 a9 b4 bd
       -0.08375335 0.07078912 -0.08304102 -0.08821417
000090 fc 88 2d bd 17 6b 73 3c 12 28 ab bb f0 a0 37 bd
       -0.042366967 0.014857075 -0.0052232826 -0.044831216
0000a0 1e 36 1a bc 6c f7 9c 3d 1e 50 56 3d 49 be ef 3d
       -0.009412317 0.076643795 0.0523225 0.11706216
0000b0 45 90 32 3c d8 5f bd bd 0c d8 21 3d ad b7 68 3d
       0.010898654 -0.09246796 0.03951268 0.056815792
0000c0 54 b9 c3 3d bd 41 c7 bd 1d 62 7f bd d2 23 4e 3d
       0.09556833 -0.097293355 -0.062349427 0.05032713
0000d0 ef 34 40 3d 49 fc 87 3d 49 a0 41 bc 8d ea 97 3d
       0.04692548 0.066399164 -0.011818 0.07417784
0000e0 5a 13 20 3d 68 e5 66 bc dd a1 f9 bc 3c 45 0e 3d
       0.039080955 -0.014092781 -0.03047269 0.034733996
0000f0 9b 25 c7 3c 1b 15 4f bd df 7d 5a bd 6b 32 9f 3d
       0.024309924 -0.050557237 -0.053342696 0.07773288
000100 78 bc 19 3e f6 3a cd 3d a7 46 2a bd 87 98 53 bd
       0.15013301 0.100210115 -0.041571286 -0.051659133
000110 0c 30 48 bd be 77 4a bd 94 1d 1a 3e 38 c4 40 bd
       -0.048873946 -0.0494306 0.15050346 -0.04706213
000120 b5 da 27 bd ba b7 c2 3d 5e 2e 00 3e 15 da 39 bd
       -0.04098006 0.09507699 0.12517688 -0.045373995
000130 3d da 64 bd 7e 34 5d 3d 6a 54 88 3d 36 47 73 bc
       -0.05587219 0.05400514 0.06656726 -0.014848521
000140 98 dd 8f bd a2 60 a0 bd d4 01 27 3d 0d 21 a5 bc
       -0.070246875 -0.07830931 0.040773228 -0.020157361
000150 dd c9 b3 bd b2 1a eb 3d 15 cc 18 3d c7 4f 8e bc
       -0.08778737 0.11479701 0.037304003 -0.017372025
000160 90 11 7a 3c 87 b2 11 bd 62 cd ba bd 4a 25 ab bd
       0.015262976 -0.035570648 -0.09121205 -0.08356722
000170 a1 20 90 3d 26 f6 d4 bd c1 ee 8d bd c0 8c ab 3d
       0.070374735 -0.103985116 -0.06930304 0.08376455
000180 d4 09 89 bd 70 8e 64 3d 89 d0 cc 3c 02 97 ca bd
       -0.06691328 0.0557999 0.025001781 -0.09892084
000190 c2 64 a8 bd 40 4b 9f bd 7c 58 dc ba 96 41 01 bd
       -0.08222343 -0.07778025 -0.0016811038 -0.03155669
0001a0 b0 db a0 3d aa bc 3c 3d 03 46 a9 3d 02 23 2f bd
       0.07854402 0.04607836 0.08265307 -0.042757995
0001b0 0e 5e 8f bd cd d6 9a 3d 0c 8a 29 3b 4b 43 8f bd
       -0.070003614 0.07560501 0.0025869636 -0.06995257
0001c0 23 5b 94 3d bf f2 68 bd 8e 0a c5 3d 63 22 9a bd
       0.072439454 -0.056872126 0.09621154 -0.0752609
0001d0 15 e4 9f 3d 09 3a d4 bc fc 17 b2 bd 64 cb f3 3c
       0.07807175 -0.02590658 -0.08695981 0.02976007
0001e0 31 02 8e bc f9 df 62 bc ae 42 f1 bb 93 99 e1 bc
       -0.01733503 -0.013847345 -0.007362685 -0.02753905
0001f0 e7 89 ef 3c 5a 11 1e 3d 32 09 b8 39 8a c8 97 3d
       0.029240562 0.038590766 0.00035102066 0.07411297
000200 ee 51 34 3d fa c9 17 3a 0d f1 f7 bb a6 da 0d bd
       0.044023447 0.000579029 -0.0075665773 -0.034632348
000210 e5 b7 92 bd be 55 16 bd db 3c 80 bd a1 89 9e bd
       -0.07163981 -0.036702864 -0.06261607 -0.077410944
000220 21 4b 05 3d da 40 92 3d 0e 43 fa bd 35 e1 88 3d
       0.03254235 0.07141276 -0.12219821 0.0668358
000230 83 a1 3a 3d b7 eb c5 3d 85 ab 75 3b 1f cb c7 bc
       0.045564186 0.096641 0.0037486267 -0.024388848
000240 dd 60 b5 3d a6 a3 62 bd e3 9e aa 3c 2f 50 b7 3d
       0.08856366 -0.05533185 0.020827716 0.08950841
000250 69 ba b1 3d 00 65 9e 3d 52 ad b9 bb ec 17 ba 3d
       0.08678133 0.07734108 -0.0056664133 0.09086594
000260 d1 06 59 3c 7e dc 08 3b 9f 65 96 3d 51 be 10 3e
       0.013246254 0.0020883377 0.073436014 0.141351
000270 d7 af 68 bd 89 e9 df 3d 43 e4 f8 bc a2 0e a9 3c
       -0.05680832 0.10933215 -0.030382281 0.02063686
000280 9a 64 04 3e 70 7d ea bc 6e 0b 41 3d ab fe bd 3c
       0.12929001 -0.028624266 0.04713004 0.023192724
000290 14 ed d6 bd 62 26 ea 3b e9 ed c1 3d 21 e5 7a 3d
       -0.10494438 0.007145689 0.09469206 0.06125367
0002a0 b1 96 7c bd df 54 cc 3d 8c b0 80 3b 91 97 ac 3d
       -0.061667148 0.099771254 0.003927296 0.084273465
0002b0 d8 76 cc 3d ca 34 2c bd 5d 02 8e 3d 64 52 21 bd
       0.09983605 -0.04204253 0.069340445 -0.039385214
0002c0 b1 51 8f 3d 68 64 25 3c bd 2c b0 bb d3 28 ce bc
       0.06998003 0.0100947395 -0.005376427 -0.02516595
0002d0 af f9 9b bd 90 cf 12 3d 5d d2 ce 3d dd 39 7a 3d
       -0.07615983 0.03584248 0.10098717 0.06109034
0002e0 b5 30 b1 bd 62 14 bc 3c 9c 41 00 bc 25 9b 28 3d
       -0.08651868 0.022958938 -0.0078281425 0.041163582
0002f0 71 fa b6 bd 9d c7 8f 3c cf b7 0a bd e1 a1 98 3c
       -0.08934487 0.017551238 -0.0338667 0.018631877
000300 f9 43 65 3d 08 7c bd 3d d2 72 90 bc 72 87 b5 3d
       0.055973027 0.09252173 -0.017632876 0.08863725
000310 24 bd 11 bb e1 56 ca bd 3a 9b 0a 3d 9f a7 a6 3b
       -0.002223798 -0.09879852 0.03383944 0.0050859
000320 15 a2 94 bd 69 97 89 3d ac 7c a1 3d 29 83 4d 3d
       -0.07257477 0.06718332 0.078851074 0.050173912
000330 12 36 91 bc 0c a8 06 bd a0 72 ec 3d c5 c0 e2 39
       -0.017725978 -0.032875106 0.115453005 0.00043249704
000340 56 e9 88 3d 9b d4 b6 bd a0 44 1c 3e dd f1 fd 3c
       0.0668513 -0.0892727 0.15260553 0.030999118
000350 3a 56 ee 3d 32 ed 9f 3d 27 e7 c4 bd 48 bc b0 3d
       0.1163754 0.07808913 -0.09614401 0.08629662
000360 1a 32 e4 bd 73 1a 27 3c d5 cd 58 3d 7c ea 2d bb
       -0.111423686 0.010199177 0.05293067 -0.0026537469
000370 1b 83 9f bb a5 fd 5e 3d 2f e1 cf bc e4 80 20 bd
       -0.004867924 0.054441113 -0.02537593 -0.03918542
000380 a7 54 a1 3b 78 11 e2 3c 72 ff e2 3c ce 89 93 3c
       0.0049234214 0.02759622 0.027709696 0.018010046
000390 eb cf 2c bd a7 32 e5 bc f1 68 47 3e 1a e2 ae bd
       -0.042190474 -0.027978254 0.19473626 -0.08539219
0003a0 0e a4 06 bd d6 79 68 bd b7 5a 91 bd 79 06 90 3c
       -0.0328713 -0.056756817 -0.070973806 0.017581211
0003b0 98 c7 d2 bb de 8f 92 bd 39 90 1e 3e 0d 59 04 bb
       -0.006432485 -0.07156347 0.15484704 -0.002019468
0003c0 0a 22 08 3e 2c bc 68 ba 3f 30 d3 3d 8b 17 94 3d
       0.13294235 -0.00088781375 0.103119366 0.07231053
0003d0 b4 f5 c4 3c 77 e3 ed bc 30 59 cb bd b9 79 ba 3d
       0.024042942 -0.029039128 -0.099291205 0.09105248
0003e0 0d 91 cd 3d 4e 22 fb bd 4d 7e 44 bd 08 25 0a 3d
       0.10037432 -0.122624025 -0.047972012 0.033726722
0003f0 24 64 44 3d 1c 70 32 bd 8f d8 05 bd 43 4e 9d bd
       0.047947064 -0.043563947 -0.03267723 -0.07680943

bias f4 [50]
000000 05 bb fe bc 1d ce 8d 3d dc ff 27 be ea 12 c7 bd
       -0.031095037 0.069240786 -0.16406196 -0.097204044
000010 cc 8b 8f bd ed 44 da 3d 37 ae 8b 3d f0 c2 43 bd
       -0.07009086 0.10657678 0.06820338 -0.04779333
000020 41 27 f6 3d 36 a3 be 3d 63 70 74 3d 7d cc 78 bd
       0.12019206 0.09308474 0.059677493 -0.06074189
000030 0a cc 59 bd f5 a6 91 bd bf bb 65 3e 5d 95 be bd
       -0.053173102 -0.07111923 0.224349 -0.093058325
000040 97 7e 43 3d 60 c9 21 3d ee 37 1b bd c0 16 33 bd
       0.047728147 0.039498687 -0.037895136 -0.043722868
000050 0d bb 43 be 17 ae 01 3e 12 4f d1 3d 66 3a ac 3c
       -0.19114323 0.12664066 0.102201596 0.02102394
000060 20 93 21 3d f7 33 76 3d 86 c6 92 bd 03 06 82 bb
       0.03944695 0.06010815 -0.071667716 -0.003968002
000070 3c ef f6 3c c9 4d 0c 3e fe 10 45 bd fe dc 10 bd
       0.030143373 0.13701548 -0.04811191 -0.035367005
000080 2a 40 f6 3d eb c1 d6 bd 0c e0 25 3e d3 4b 7a bd
       0.12023957 -0.10486206 0.16198748 -0.061107468
000090 86 73 1f bc a8 4e ad bd f0 d9 2b 3e 8e bd 14 bd
       -0.009732133 -0.08462268 0.16782355 -0.036313586
0000a0 13 94 a7 3d 13 11 96 3c 6f af f2 3d 00 c9 98 bd
       0.0818254 0.018318688 0.118498676 -0.07460213
0000b0 c3 2b 71 bd bf 7f c4 bd 40 da 45 3e fa 4f 1f 3d
       -0.058879625 -0.09594678 0.19321537 0.03889463
0000c0 de bd f0 bd 2e eb 58 3b
       -0.11754964 0.0033099162

weight f4 [10, 50]
000000 a8 8c 05 3e 61 b7 1d 3e fd 66 b9 3d 89 73 99 bc
       0.13041937 0.15401985 0.090528466 -0.01873185
000010 fc e2 7b bc a9 05 d4 3e e5 47 ba bd 70 74 b4 bd
       -0.0153739415 0.41410568 -0.09095744 -0.08811271
000020 64 3a 1f bd c3 ad ee 3e 9b 64 9b bc 8e a4 eb bc
       -0.038874045 0.46616945 -0.01896887 -0.02876499
000030 27 e4 0d be cb e9 12 3c 83 b5 21 be ab bb 3e 3d
       -0.13856564 0.008966873 -0.15791897 0.046565693
000040 56 20 80 3e b0 d3 30 3e 80 69 86 3e 38 b7 47 3d
       0.2502467 0.17268252 0.26252365 0.048758715
000050 bd 4f 6d bd 82 d2 59 3c fd 41 c4 3d 17 e9 1b 3e
       -0.057937372 0.013294818 0.09582899 0.15225635
000060 56 8f b5 3d 12 60 b6 bc ae 83 94 bd ce 5b d9 bc
       0.0886523 -0.022262607 -0.072516784 -0.026533034
000070 c6 68 d8 3d c4 b3 b3 bd 9c 4b 76 bd 34 0a 4a 3e
       0.10566859 -0.08774522 -0.0601307 0.19730455
000080 cd 87 5d bd 9e 36 81 bd c2 af 43 3e 5d 3f 98 bd
       -0.054084588 -0.063092455 0.19110015 -0.074339606
000090 28 f1 09 3e bf 3d ef 3a 23 17 62 3e 86 7a 04 3b
       0.134709 0.0018252655 0.22079138 0.0020214631
0000a0 c6 89 21 be 7a 4b 1d 3e 22 03 15 bd 16 db e7 bd
       -0.15775213 0.15360823 -0.03637994 -0.11321084
0000b0 9f 96 db 3e c9 82 15 be 65 e8 ab bd c2 41 78 bd
       0.42888352 -0.14600672 -0.08393935 -0.060609587
0000c0 3c 6e a4 3d 53 3d c3 bd 71 71 b3 bd 37 eb bd bc
       0.08028838 -0.09533181 -0.087618716 -0.023183448
0000d0 ac fe 53 bd 7f 65 74 3d bc 83 db bc 4c c2 6f 3d
       -0.051756546 0.059667107 -0.026796214 0.058534905
0000e0 2f 6e e1 bd 04 d1 87 3c 3e e0 f9 3d e2 31 19 bc
       -0.11007344 0.016579159 0.12200974 -0.009350272
0000f0 7e 4d 06 3e 53 05 35 3d 67 64 0d be b8 6a cc bd
       0.13115498 0.04419453 -0.13807832 -0.099812925
000100 6a e6 22 3e 8d 8c d0 bc 41 0a 07 3e bf 90 0f be
       0.15908208 -0.025457645 0.13187505 -0.1402006
000110 a7 44 a4 bd bb 76 dc 3d b0 22 bc 3d a7 0c d4 bd
       -0.08020907 0.107648335 0.091863036 -0.10353976
000120 f9 a8 28 3d 5d a7 12 be 81 6f bc bd 49 62 ad 3d
       0.04117677 -0.14321657 -0.09200955 0.08466012
000130 3f 86 8f bd cb e7 87 bc c5 21 62 bd 44 62 eb bd
       -0.07008027 -0.01659002 -0.055207986 -0.11493352
000140 97 d2 07 be 8e 6e 63 3d f1 65 fe 3d 89 43 cf bc
       -0.13263927 0.055525355 0.124217875 -0.025300758
000150 f9 4a 13 3e b6 9c d8 bd 3b b9 19 bd 58 eb fc bd
       0.14384069 -0.10576765 -0.037530165 -0.12349576
000160 fa ee 23 3e e3 f2 d0 3c 87 51 eb 3c f6 82 76 bd
       0.16009131 0.025506442 0.028725399 -0.060183488
000170 0f 03 d5 bd b1 1a ff 3d a5 55 6c 3d 14 28 b7 bc
       -0.10400974 0.12456263 0.057698864 -0.022357978
000180 0f e5 d6 3c 58 7f 32 3d 42 d6 84 bd 54 20 08 3e
       0.02623227 0.043578476 -0.06486179 0.13293582
000190 73 ed 28 3d b4 48 88 3d 53 39 b6 3d e4 0c c2 bd
       0.041242074 0.06654492 0.088976525 -0.09475115
0001a0 9e 68 aa 3d 4c ec c7 3d cd fb 14 be 23 de dc bc
       0.083207354 0.09761867 -0.1454918 -0.026961392
0001b0 97 ae 78 bd ee 17 a0 3e 06 c4 53 bc 14 66 c7 bd
       -0.060713377 0.31268257 -0.012925154 -0.09736267
0001c0 44 e0 d7 bd bd 5c c0 bd 30 6e 3c be 22 83 f8 3c
       -0.10540822 -0.093926884 -0.18401408 0.030335966
0001d0 66 7c 82 3d 8a 85 ac bd 65 3c 0b 3e a6 7f f2 bc
       0.06371383 -0.08423908 0.13597257 -0.029601883
0001e0 e6 2d 38 bd 7c bc eb bd e7 ed 25 3e 0a 8f 07 3d
       -0.044965647 -0.1151056 0.16204034 0.033095397
0001f0 6a 90 0d 3d 5c 87 e8 bc bf 4f 11 3d 91 29 58 3d
       0.034561552 -0.028384857 0.035476442 0.052774016
000200 7c ec 1b 3d 52 11 2c bd 78 c7 15 bd 2e 9f 68 bd
       0.038067326 -0.042008705 -0.03656718 -0.05679243
000210 1c 86 b4 3b 42 86 66 bd db dd 23 3e 9d 63 0a 3e
       0.005509151 -0.056280382 0.160026 0.13514562
000220 9d 8c 9b 3d 23 e4 40 bd 46 59 46 3d 1e 21 bc 3d
       0.07595179 -0.047092568 0.04842498 0.09186004
000230 60 16 22 bd 8e 57 03 3e d9 2c ef bd 1c 63 ce bc
       -0.03957212 0.12826368 -0.11678476 -0.025193743
000240 9e 10 70 3e 83 9a 1a 3d 49 b2 d2 bc fa ec a0 3b
       0.23443839 0.03774501 -0.025719779 0.0049110623
000250 84 10 15 bd dc 10 a5 bd 93 2f 45 3e 11 5c 0d bd
       -0.036392704 -0.08059856 0.1925643 -0.03451163
000260 34 b1 01 3d b7 bc d1 3d f0 48 0c 3e f6 12 94 bd
       0.031663135 0.102410726 0.13699698 -0.07230179
000270 36 6e 42 3d 7e 1a dd bd d9 47 c0 3d c2 c8 27 bd
       0.047468387 -0.107960686 0.09388704 -0.040962942
000280 20 44 c2 3c 76 1a f3 bd 2b e4 2f bd 00 0d 35 3e
       0.023714125 -0.118702814 -0.042942207 0.1768074
000290 41 ae 41 3d c0 29 80 3d 4a 1e e7 bd 18 ca 03 3e
       0.047285322 0.06257963 -0.11285074 0.12870061
0002a0 d9 eb df bd 62 e3 04 3e fe 8c ba 3c d3 22 0d 3e
       -0.10933656 0.12977365 0.022772308 0.13782816
0002b0 fb 9d f9 bc 60 62 89 bd 31 f7 29 bc 71 52 1b 3e
       -0.030470839 -0.06708217 -0.010373876 0.15168168
0002c0 3e 5b 9d 3d af a7 36 3e 20 82 80 bb 2e dc 91 3d
       0.07683419 0.17837404 -0.003921762 0.07122074
0002d0 12 b3 33 3e 48 bc 7c bd c8 ff 15 3d de aa 83 3d
       0.17548779 -0.061702996 0.036620885 0.06429075
0002e0 4e 9e 2e 3d 80 78 24 3d d9 70 57 3d e3 f0 b3 bc
       0.04263144 0.04015398 0.052597854 -0.02196545
0002f0 14 91 91 bc 14 ba 6e 3e 5f 51 e7 3d 89 96 05 be
       -0.017769374 0.2331317 0.11294817 -0.13045706
000300 f7 53 b3 bd 82 45 bf bc eb 90 dd bd 13 c0 9a 3e
       -0.087562494 -0.023348574 -0.108186565 0.30224666
000310 05 05 45 3e fb 00 4d 3e 98 ab 4a 3e 63 70 1e 3e
       0.19240196 0.20019905 0.1979202 0.1547256
000320 e3 5d 88 3e 57 20 9e bd 27 81 cd 3e 37 8f 40 3d
       0.2663413 -0.07721012 0.40137598 0.04701158
000330 58 bf e2 3d 13 14 cf bd 3e 19 64 3e 10 4f 01 be
       0.11071652 -0.10111251 0.22275254 -0.12627816
000340 ce 72 03 bd f4 dd 22 be 3b 40 3c 3d 5f 3c 6c 3c
       -0.03209191 -0.15904981 0.045959692 0.01441869
000350 f0 66 f7 ba 0f e5 f8 3e 48 3c 11 be b5 32 19 be
       -0.0018875282 0.48612258 -0.14183152 -0.1496075
000360 b7 e6 a4 bb 67 95 d5 bd f5 78 02 be f6 9c a2 bd
       -0.005032386 -0.10428887 -0.12741454 -0.07940094
000370 fd 1e d9 3e 7f 1a 2d be 5c 3e 0e be 29 7c aa 3d
       0.42406455 -0.16904639 -0.13890976 0.08324463
000380 0f 23 08 be 5d c7 47 bc ea b9 a1 bd b7 e0 3b 3e
       -0.13294624 -0.012193528 -0.078967884 0.1834744
000390 00 28 e7 3d a2 6e 08 be da de be 3d f4 6e 71 3d
       0.11286926 -0.13323453 0.09319849 0.058943704
0003a0 b0 ab 5e be 87 54 5e 3d 1e ac 67 3c 72 52 db 3d
       -0.21745181 0.05427983 0.014140157 0.107090846
0003b0 8c c4 2a 3c be 0a 05 3e 76 78 45 be ff d9 91 3e
       0.010422837 0.12992379 -0.19284233 0.2848663
0003c0 d5 2a f5 bd 4a d9 18 be 1e e2 1a bd b5 38 9d 3d
       -0.1197106 -0.14926639 -0.0378133 0.07676832
0003d0 08 c6 9e 3c 23 53 b3 3e 89 13 4b 3c 58 6f 42 3e
       0.019381538 0.35024366 0.012394794 0.18987787
0003e0 b8 19 5f 3e 20 8e 2f 3d cd 3b 95 bd c9 99 3e 3e
       0.21787155 0.04286015 -0.07286797 0.18613352
0003f0 11 36 f4 bd 3a c2 f2 3d 80 83 83 3d c9 a0 0e be
       -0.11924375 0.11853452 0.06421566 -0.13928522

bias f4 [10]
000000 c8 2a aa 3c 2d 4b 2e 3e 51 14 53 3d 0a 6e 9e 3e
       0.020772353 0.17020865 0.051533047 0.30943328
000010 4d a3 7a be b1 9c 0d 3f 64 14 a4 bd 86 04 8f bd
       -0.24476357 0.5531722 -0.08011702 -0.06983285
000020 d0 89 69 be 04 1f a7 bd
       -0.22806478 -0.08160213

weight f4 [3, 10]
000000 22 df 54 3f 96 41 19 3e d7 79 d9 3e a4 11 13 bf
       0.83152974 0.14966425 0.4247577 -0.5744879
000010 e2 ad 17 bf 6b 37 32 be 57 d1 c4 bd 7d a1 36 3e
       -0.592497 -0.17403953 -0.09610241 0.1783504
000020 7c e1 5a 3c 8d 1f 97 be 40 f8 03 bf 6f 87 a8 3e
       0.013359424 -0.2951626 -0.51550674 0.32915828
000030 f9 aa 7e be 8d 32 95 3e 81 73 b8 be ee b9 7d 3f
       -0.24869908 0.2914013 -0.36025622 0.9911183
000040 66 49 2d 3e 72 f1 2e be 8f 31 25 be b2 bc 49 be
       0.1692253 -0.17084292 -0.16132186 -0.19700888
000050 90 c4 aa be 4f c3 e3 3c e4 7f 1d be 3b 04 2e 3e
       -0.3335309 0.027803091 -0.15380818 0.16993801
000060 d1 b0 64 3f 27 b3 de be a8 32 18 3e 8c 09 2b be
       0.893323 -0.43496057 0.14863074 -0.1670286
000070 42 21 13 3f 00 32 fe 3e
       0.5747262 0.49647522

bias f4 [3]
000000 0e 28 7b be 4a f6 d8 3e 15 26 32 bf
       -0.24526998 0.42375404 -0.6958936
